…
2025-07-03 10:04:17,145 - evaluation_logger - INFO - Device: cuda
2025-07-03 10:04:17,868 - evaluation_logger - INFO -   Model type: CNNClassifier
2025-07-03 10:04:17,868 - evaluation_logger - INFO -   Optimizer: adam ({'weight_decay': 0.0001, 'lr': 0.001})
2025-07-03 10:04:17,868 - evaluation_logger - INFO -   Loss: CrossEntropyLoss ({})
2025-07-03 10:04:17,868 - evaluation_logger - INFO -   Epochs: 50, Batch Size: 32
2025-07-03 10:04:17,868 - evaluation_logger - INFO -   Device: cuda
2025-07-03 10:04:23,986 - evaluation_logger - INFO - MultiInputCNNClassifier(
  (text_embedding_branches): ModuleDict(
    (RequestURIPath): Embedding(29, 32)
    (RequestURIQuery): Embedding(43, 32)
    (RequestBody): Embedding(60, 32)
    (UserAgent): Embedding(45, 32)
  )
  (cat_embedding_branches): ModuleDict(
    (RequestMethod): Embedding(4, 3)
  )
  (num_linear_branch): Linear(in_features=3, out_features=32, bias=True)
  (text_conv_layers): ModuleDict(
    (RequestURIPath): Conv1d(32, 32, kernel_size=(3,), stride=(1,))
    (RequestURIQuery): Conv1d(32, 48, kernel_size=(5,), stride=(1,))
    (RequestBody): Conv1d(32, 96, kernel_size=(5,), stride=(1,))
    (UserAgent): Conv1d(32, 64, kernel_size=(4,), stride=(1,))
  )
  (fusion): Sequential(
    (0): Linear(in_features=275, out_features=64, bias=True)
    (1): ReLU()
    (2): Dropout(p=0.5, inplace=False)
    (3): Linear(in_features=64, out_features=2, bias=True)
  )
)
2025-07-03 10:04:23,986 - evaluation_logger - INFO - --- Model Evaluation ---
2025-07-03 10:04:24,011 - evaluation_logger - INFO - 	--- Evaluation Results ---
	Accuracy: 1.0000
	Precision: 1.0000
	Recall: 1.0000
	F1-Score: 1.0000

	--- Classification Report ---
              precision    recall  f1-score   support

      benign       1.00      1.00      1.00       336
…
